…
n.\n\nIn this case, the particular function we chose is the sigmoid activation function, which looks something like the above.\nModel Overview\nPhew, finally got through everything! After putting it all together, we end up with a network that looks something like this:\n# 75 max_seq_len\n# 1000 tokenizer_vocab_size\nmodel = net.RNN(75, 1000)\nmodel.summary()\n \n# _________________________________________________________________\n# Layer (type)                 Output Shape              Param #\n# =================================================================\n# inputs (InputLayer)          (None, 75)                0\n# _________________________________________________________________\n# embedding_1 (Embedding)      (None, 75, 64)            64000\n# _________________________________________________________________\n# lstm_1 (LSTM)                (None, 75, 64)            33024\n# _________________________________________________________________\n# dropout_1 (Dropout)          (None, 75, 64)            0\n# _________________________________________________________________\n# lstm_2 (LSTM)                (None, 64)                33024\n# _________________________________________________________________\n# FC1 (Dense)                  (None, 256)               16640\n# _________________________________________________________________\n# dropout_2 (Dropout)          (None, 256)               0\n# _________________________________________________________________\n# out_layer (Dense)            (None, 1)                 257\n# _________________________________________________________________\n# activation_1 (Activation)    (None, 1)                 0\n# =================================================================\n# Total params: 146,945\n# Trainable params: 146,945\n# Non-trainable params: 0\n# _________________________________________________________________\nTheres a grand total of 150,000 different trainable knobs and parameters in our neural network!\nTraining pipeline\nSo, how does the data we got earlier play a role in helping our
…
